                   from  n    params  module                                       arguments                     
  0                  -1  1      1856  ultralytics.nn.modules.conv.Conv             [3, 64, 3, 2]                 
  1                  -1  1     73984  ultralytics.nn.modules.conv.Conv             [64, 128, 3, 2]               
  2                  -1  1    104788  ultralytics.nn.extra_modules.block.CSP_MutilScaleEdgeInformationSelect[128, 128, 1]                 
  3                  -1  1    295424  ultralytics.nn.modules.conv.Conv             [128, 256, 3, 2]              
  4                  -1  1    391828  ultralytics.nn.extra_modules.block.CSP_MutilScaleEdgeInformationSelect[256, 256, 1]                 
  5                  -1  1    885504  ultralytics.nn.modules.conv.Conv             [256, 384, 3, 2]              
  6                  -1  1    861140  ultralytics.nn.extra_modules.block.CSP_MutilScaleEdgeInformationSelect[384, 384, 1]                 
  7                  -1  1   1327872  ultralytics.nn.modules.conv.Conv             [384, 384, 3, 2]              
  8                  -1  3   1990524  ultralytics.nn.extra_modules.block.CSP_MutilScaleEdgeInformationSelect[384, 384, 3]                 
  9                  -1  1     98816  ultralytics.nn.modules.conv.Conv             [384, 256, 1, 1, None, 1, 1, False]
 10                  -1  1    789760  ultralytics.nn.modules.transformer.AIFI      [256, 1024, 8]                
 11                  -1  1     66048  ultralytics.nn.modules.conv.Conv             [256, 256, 1, 1]              
 12                  -1  1         0  torch.nn.modules.upsampling.Upsample         [None, 2, 'nearest']          
 13                   6  1     98816  ultralytics.nn.modules.conv.Conv             [384, 256, 1, 1, None, 1, 1, False]
 14            [-2, -1]  1         0  ultralytics.nn.modules.conv.Concat           [1]                           
 15                  -1  3    657920  ultralytics.nn.modules.block.RepC3           [512, 256, 3, 0.5]            
 16                  -1  1     66048  ultralytics.nn.modules.conv.Conv             [256, 256, 1, 1]              
 17                  -1  1         0  torch.nn.modules.upsampling.Upsample         [None, 2, 'nearest']          
 18                   4  1     66048  ultralytics.nn.modules.conv.Conv             [256, 256, 1, 1, None, 1, 1, False]
 19            [-2, -1]  1         0  ultralytics.nn.modules.conv.Concat           [1]                           
 20                  -1  3    657920  ultralytics.nn.modules.block.RepC3           [512, 256, 3, 0.5]            
 21                  -1  1    590336  ultralytics.nn.modules.conv.Conv             [256, 256, 3, 2]              
 22            [-1, 16]  1         0  ultralytics.nn.modules.conv.Concat           [1]                           
 23                  -1  3    657920  ultralytics.nn.modules.block.RepC3           [512, 256, 3, 0.5]            
 24                  -1  1    590336  ultralytics.nn.modules.conv.Conv             [256, 256, 3, 2]              
 25            [-1, 11]  1         0  ultralytics.nn.modules.conv.Concat           [1]                           
 26                  -1  3    657920  ultralytics.nn.modules.block.RepC3           [512, 256, 3, 0.5]            
 27        [20, 23, 26]  1   4019376  ultralytics.nn.modules.head.RTDETRDecoder    [80, [256, 256, 256], 256, 300, 4, 8, 3]
rtdetr-CSP-MutilScaleEdgeInformationSelect summary: 873 layers, 14950184 parameters, 14950184 gradients, 51.2 GFLOPs